saved_weights_Linear.pt (torch_old, 42392 bytes, 4 tensors)

fc1.weight f4 [100, 100]
0	0xbeb3b35e	-0.35097784
1	0x3e74dc07	0.23912059
2	0x3efefa23	0.49800214
3	0x3ed4c3b4	0.4155556
4	0x3f30f694	0.6912625
5	0x3e93763a	0.28801137
6	0x3f335a52	0.7005969
7	0x3f7bc874	0.9835274
8	0xbc2d87ba	-0.010591442
9	0x3e136f5b	0.14397947
10	0x3e346562	0.176168
11	0x3e5886f3	0.21145229
12	0x3ebd9694	0.37028944
13	0x3ed42dd8	0.41441226
14	0xbce0d78c	-0.02744653
15	0x3e20cb9f	0.15702675
16	0xbe52def6	-0.20592865
17	0xbcb312cc	-0.021859549
18	0x3d321c5d	0.04348408
19	0x3eb1a4e5	0.34696117
20	0x3f56cfde	0.8391093
21	0x3ec843e6	0.39114302
22	0x3f6cc887	0.9249348
23	0x3ee0cf31	0.43908074
24	0x3c0a336f	0.008435114
25	0xbeb667b3	-0.3562599
26	0x3e574996	0.21024165
27	0xbe17d406	-0.14826974
28	0x3f5fc877	0.8741526
29	0x3cd47d35	0.02593861
30	0x3d42499b	0.047433477
31	0xbda89ffb	-0.08233639
32	0xbf2e66bd	-0.68125516
33	0xbf4ae949	-0.79262215
34	0xbf09b502	-0.5379182
35	0xbe9a6df3	-0.3016201
36	0xbf265931	-0.64979845
37	0xbf0ddcaa	-0.5541483
38	0x39b97af0	0.00035377545
39	0x3eeeb9cb	0.46626124
40	0xbe92fda1	-0.28709128
41	0xbe5dd38f	-0.21662734
42	0xbed8337c	-0.4222678
43	0xbecf42fd	-0.40480796
44	0xbe9577e2	-0.29193026
45	0xbc590b0b	-0.013247262
46	0xbde69fbe	-0.11260937
47	0x3d765357	0.060138073
48	0xbeff17b4	-0.49822772
49	0xbe9f1c46	-0.31076258
50	0xbe95793c	-0.29194057
51	0xbe0a03a1	-0.13477947
52	0xbd841753	-0.06449761
53	0xbe5fac99	-0.21843185
54	0x3e3bfa5e	0.18357226
55	0xbdfaf5bb	-0.122539006
56	0x3d864393	0.065558575
57	0xbe22d377	-0.1590098
58	0x3ef355b5	0.47526327
59	0xbc0f55c0	-0.008748472
60	0x3f183574	0.59456563
61	0x3c975985	0.018475303
62	0x3c01d644	0.00792462
63	0x3eda99b4	0.4269539
64	0xbe1c2772	-0.15249422
65	0x3f81b448	1.0133142
66	0xbdb609b8	-0.088885725
67	0x3d23ef4c	0.040023133
68	0xbc8d3165	-0.017235467
69	0x3ce79ac2	0.028272036
70	0xbf2c28ee	-0.67249954
71	0xbf2961ab	-0.66164654
72	0xbea87aaf	-0.329061
73	0xbf851102	-1.0395815
74	0xbe514336	-0.20435795
75	0xbe891299	-0.26772
76	0xbf5bd132	-0.8586608
77	0xbf1c033e	-0.6094245
78	0xbe200270	-0.1562593
79	0xbea37183	-0.3192254
80	0xbead4da9	-0.33848312
81	0xbf081107	-0.5315098
82	0xbef6fe9f	-0.48241135
83	0xbe40beae	-0.18822739
84	0xbd4acbb3	-0.04951067
85	0xbf14274b	-0.57872456
86	0xbeb40aa9	-0.35164383
87	0xbf481a5b	-0.78165215
88	0xbeb48037	-0.3525407
89	0xbf257e40	-0.6464577
90	0xbdd11748	-0.10209519
91	0xbee20832	-0.44146878
92	0xbd5353df	-0.051593658
93	0x3e9ee5ca	0.3103469
94	0xbcb98f1e	-0.022651251
95	0x3e5fe4a6	0.21864566
96	0xbd60f127	-0.05491748
97	0xbee348d4	-0.443915
98	0xbe34a664	-0.17641598
99	0xbe81ee47	-0.25377104
100	0xbe93e421	-0.28884986
101	0x3df25d5a	0.11834212
102	0xbe163b44	-0.14671046
103	0xbe0b6168	-0.13611376
104	0xbd62daae	-0.05538433
105	0x3e277d88	0.1635648
106	0xbde0a076	-0.109681055
107	0xbe6c4568	-0.23073351
108	0xbec0a823	-0.37628278
109	0x3e37201a	0.1788334
110	0xbeefb213	-0.46815547
111	0x3c1cf71e	0.009580402
112	0x3e8627b1	0.26202157
113	0x3e06730d	0.13129826
114	0xbe440c45	-0.19145305
115	0x3d58f97d	0.052972306
116	0x3e01fc7a	0.12693968
117	0x3e75b498	0.23994672
118	0x3e280bae	0.16410705
119	0x3e988382	0.29787832
120	0x3d3882bf	0.045046564
121	0x3ce57b30	0.028012842
122	0x3c6a71d2	0.014309363
123	0x3cb1a0fe	0.021683212
124	0xbf034c25	-0.5128806
125	0x3e54dfa7	0.20788442
126	0xbe541db6	-0.20714459
127	0x3d93dccd	0.07219849
128	0x3e48ecce	0.19621584
129	0xbd1ecd71	-0.038770143
130	0x3d99171f	0.07475113
131	0xbecb5fd0	-0.39721537
132	0xbcf8f42f	-0.030389873
133	0x3e876fa5	0.26452366
134	0xbc13db21	-0.009024412
135	0xbdff35d0	-0.12461436
136	0xbd28d32d	-0.041217018
137	0x3d83c6fc	0.06434438
138	0xbe191ba0	-0.14951944
139	0x3e8bac3d	0.27279845
140	0xbd8c470a	-0.06849487
141	0x3e99b476	0.30020493
142	0x3e977f98	0.29589534
143	0x3e99d20a	0.3004306
144	0xbe4a8858	-0.19778574
145	0xbee086b0	-0.43852758
146	0xbf1b158e	-0.60579765
147	0xbeee48d6	-0.46539944
148	0xbea48953	-0.3213602
149	0xbdf91167	-0.12161522
150	0xbd348037	-0.044067588
151	0x3eaff0dd	0.34363452
152	0x3e66fac1	0.22556593
153	0x3e8a5a66	0.27022094
154	0x3edcca7f	0.43123242
155	0x3e51c76e	0.20486233
156	0x3ea47bd8	0.32125735
157	0x3cb0e82c	0.021595083
158	0x3e378f78	0.17925823
159	0xbe517b3b	-0.20457165
160	0xbf00c9b0	-0.5030775
161	0xbeafbc7b	-0.34323487
162	0xbe1b44f3	-0.15163021
163	0xbea0c413	-0.31399593
164	0xbe0f7eb7	-0.14013182
165	0xbee242a7	-0.44191477
166	0x3c6abfb3	0.014327931
167	0xbe58500c	-0.21124285
168	0xbdb1924e	-0.086704835
169	0xbc3ea15e	-0.011635153
170	0x3ea5efb9	0.32409456
171	0xbeda0aae	-0.42586273
172	0xbe27dde8	-0.16393244
173	0xbe4aa0fc	-0.19787973
174	0xbe053fe4	-0.13012654
175	0xbe4f2dbf	-0.20232294
176	0xbd2a8ad4	-0.041636303
177	0x3e3ad7b1	0.18246342
178	0xbe96753e	-0.29386324
179	0xbe6fb69c	-0.23409504
180	0xbe27acb7	-0.16374479
181	0x3e2c1c94	0.16807777
182	0xbad0e830	-0.0015938338
183	0x3dd7e58b	0.10541829
184	0xbe9a5277	-0.3014104
185	0xbe14a38e	-0.14515516
186	0xbe943168	-0.28943944
187	0x3cec6396	0.02885608
188	0xbd67402b	-0.05645768
189	0xbd45f8f2	-0.048333116
190	0x3c3e4f77	0.011615626
191	0x3ebb22b9	0.3654993
192	0x3dabfc55	0.08397738
193	0x3e055e7f	0.13024329
194	0xbd51d1fa	-0.05122564
195	0x3eba590f	0.3639607
196	0xbd70765c	-0.058706626
197	0x3e6b5223	0.22980551
198	0xbc5aea79	-0.013361567
199	0x3e6c92a8	0.2310282
200	0xbdb8857c	-0.09009835
201	0xbd902df8	-0.07040018
202	0x3ec9368c	0.39299428
203	0x3c966aac	0.018361412
204	0x3eba5e2c	0.36399972
205	0x3e01b1c4	0.12665468
206	0xbebf9e9a	-0.3742569
207	0x3e754fc9	0.23956217
208	0xbe19631b	-0.14979212
209	0x3b2626d3	0.002535273
210	0x3dfc6390	0.123236775
211	0xbe9e5cd7	-0.30930206
212	0xbe3ea300	-0.18616867
213	0x3e5c3ec3	0.21508317
214	0x3de4242b	0.11139711
215	0x3e3dd958	0.18539941
216	0x3f12098d	0.57045823
217	0xbe0b3257	-0.13593422
218	0x3df50bc0	0.11965132
219	0x3b376c1e	0.0027988027
220	0xbe060897	-0.13089214
221	0xbee0d909	-0.43915585
222	0xbe3060d1	-0.17224433
223	0xbe1e67bc	-0.15469259
224	0xbe27c428	-0.16383421
225	0xbea3ee11	-0.32017568
226	0x3f298f4c	0.6623428
227	0x3dd59b9e	0.10430072
228	0xbda454dd	-0.08023999
229	0xbe8a7816	-0.27044743
230	0xbe4d60ca	-0.20056453
231	0xbbb891bc	-0.0056326073
232	0x3cfd2286	0.030900251
233	0x3e2f520d	0.17121144
234	0x3e63b950	0.2223866
235	0x3cb111e2	0.021614973
236	0x3ed23463	0.41055593
237	0xbd924830	-0.07142675
238	0xbd2bfe91	-0.04199082
239	0x3c84ae98	0.016196534
240	0x3e8d83b3	0.2763954
241	0xbe33fd2a	-0.17577043
242	0x3f31bac3	0.694256
243	0x3ef94751	0.48687223
244	0x3d3a8fe1	0.04554737
245	0x3eca66a9	0.39531448
246	0x3ee2dd45	0.4430944
247	0x3d62b9ab	0.055352848
248	0xbe424384	-0.18971068
249	0xbe95847e	-0.29202646
250	0xbeae7d13	-0.340798
251	0xbeb9b6f8	-0.36272407
252	0xbdd4e557	-0.103953056
253	0xbed7fdaa	-0.42185718
254	0xbeb5a0d9	-0.3547428
255	0x399bc310	0.00029709237

fc1.bias f4 [100]
0	0x3f8c8342	1.0977557
1	0xbcc276aa	-0.023738224
2	0x3de6e2e2	0.11273743
3	0xbe39bbc0	-0.18138027
4	0x3e31a745	0.17348965
5	0xbf7591fc	-0.9592588
6	0xbe30002d	-0.17187567
7	0xbe1b8100	-0.15185928
8	0xbf01e328	-0.5073724
9	0x3f928de7	1.1449555
10	0xbf5e9fa2	-0.8696233
11	0xbecb2d36	-0.3968293
12	0xbf2b84a6	-0.6699928
13	0xbdff9782	-0.1248007
14	0xbe845093	-0.25842723
15	0x3f12920e	0.5725411
16	0xbfe3301c	-1.7749057
17	0x3f1b759f	0.6072635
18	0x3e765aab	0.24058025
19	0x3dfd188b	0.12358197
20	0xbe45c187	-0.19312106
21	0xbee51aa6	-0.44746894
22	0x3ef37420	0.47549534
23	0xbea7fe5e	-0.32811254
24	0x3d6150cd	0.0550087
25	0x3ee9617c	0.45582187
26	0xc05f8411	-3.4924357
27	0xbf1a6b34	-0.6031983
28	0x3f02377f	0.5086593
29	0x3c9b551a	0.018961478
30	0xbf22389e	-0.6336764
31	0x3e9598f1	0.29218248
32	0xbebef686	-0.37297457
33	0xbe535136	-0.20636448
34	0x3f415779	0.755241
35	0xbe801566	-0.25016326
36	0x3f943385	1.1578223
37	0xbe1c5d4e	-0.15269968
38	0xbf2d89a4	-0.6778815
39	0xbf1586f9	-0.58409077
40	0xbe67508f	-0.22589324
41	0xbcbb91d8	-0.022896692
42	0xbee3f759	-0.4452465
43	0xbe867385	-0.2626001
44	0xbf88cece	-1.0688112
45	0x3f237828	0.6385522
46	0x3e9e1f17	0.30883095
47	0x3ecbba15	0.39790407
48	0xbec5ae31	-0.3860946
49	0x3e369f2d	0.17834158
50	0x3d618993	0.05506284
51	0xbe1eee2b	-0.15520541
52	0x3dde91e2	0.10867669
53	0x3ea0d075	0.3140904
54	0xbf181235	-0.5940278
55	0xbec7c7ce	-0.39019626
56	0xbf52ac1f	-0.82293886
57	0x3f23e93a	0.6402775
58	0x3f3941fa	0.723663
59	0x3f0041e2	0.5010053
60	0xbf2d3c04	-0.676697
61	0x3f0f60c7	0.56007046
62	0x3ede9550	0.4347329
63	0xbf2e5071	-0.68091494
64	0x3ed1a4da	0.40946084
65	0xbe372611	-0.17885615
66	0xbe46b6a6	-0.19405612
67	0x3f114814	0.5675061
68	0x3f2affcf	0.6679658
69	0x3f3031e7	0.68826145
70	0xbf2c9234	-0.6741059
71	0x3e012f27	0.12615643
72	0x3d9dc870	0.07704246
73	0xbc845b34	-0.01615677
74	0xbcbd1a51	-0.023083838
75	0xbf64e5e1	-0.8941327
76	0x3e642456	0.22279486
77	0x3edbfb33	0.42965087
78	0xbce7d5ac	-0.028300129
79	0xbe44f215	-0.19232972
80	0x3df4daac	0.11955771
81	0xbe32f3c6	-0.17475805
82	0x3e12260e	0.14272329
83	0xbf7b1d6c	-0.9809177
84	0x3eb18c2e	0.3467726
85	0x3ec54bb8	0.3853433
86	0x3e013fda	0.12622014
87	0x3dc292ee	0.09500681
88	0xbf10aa03	-0.5650942
89	0x3eeeb8cf	0.46625373
90	0x3f22aaae	0.63541687
91	0x3e0f00f4	0.13965207
92	0xbe9046aa	-0.28178912
93	0x3d7fc554	0.062444046
94	0x3f87281c	1.0559115
95	0xbe96d15d	-0.29456607
96	0xbdfdc6ef	-0.12391459
97	0x3f0df1f6	0.5544733
98	0x3f0d108c	0.55103374
99	0xbe50169a	-0.20321122

fc2.weight f4 [3, 100]
0	0x3b04af6e	0.0020246166
1	0x3dab144e	0.08353482
2	0xbd029385	-0.031878967
3	0xbc1dddf0	-0.009635434
4	0xbcf253a9	-0.029580908
5	0x3c51c551	0.012803392
6	0xbd28ce46	-0.041212343
7	0x3daba2a9	0.08380634
8	0x3d8c5e60	0.06853938
9	0x3d332e80	0.043745518
10	0xbd9ef7d9	-0.07762117
11	0x3b72beb2	0.0037039933
12	0x3d5f5c9b	0.054531675
13	0x3d138f7d	0.036025513
14	0x3d996dc9	0.07491643
15	0x3d59b91f	0.05315506
16	0xbccbd2eb	-0.024880847
17	0x3cc2f9b1	0.023800703
18	0x3d62058a	0.055181064
19	0xbd8eeadd	-0.0697839
20	0x3d34c9c7	0.044137742
21	0xbd86cdcf	-0.065822236
22	0xbc99979d	-0.018749053
23	0x3d526aa4	0.05137123
24	0xbd8cf5a6	-0.06882791
25	0xb986e7c0	-0.0002573114
26	0xbe8b2eb5	-0.27184072
27	0xbcade78c	-0.021228574
28	0x3d7c8f3a	0.06166003
29	0xbcce7547	-0.025202407
30	0xbda6dea8	-0.08147937
31	0x3c93095f	0.017948804
32	0x3d104554	0.035222366
33	0xbd6d07e8	-0.057868868
34	0x3cdd255f	0.026995359
35	0xbd10ed07	-0.035382297
36	0xbdd2e505	-0.10297588
37	0x3dcb5b5a	0.09929533
38	0xbd3ef3a3	-0.04661907
39	0x3d2db20e	0.042406134
40	0xbd9dda9a	-0.077077106
41	0xbda2eaf3	-0.07954969
42	0x3d1a5bbc	0.03768514
43	0x3e1aa3f9	0.15101613
44	0xbd53a6b7	-0.051672664
45	0xbd170301	-0.0368681
46	0x3d4e9bb7	0.05044147
47	0xbd38606c	-0.04501383
48	0x3c3b08f6	0.011415711
49	0x3da2d7d4	0.07951322
50	0x3d3f3467	0.046680834
51	0x3deb9865	0.11503676
52	0xbd21baa4	-0.039484635
53	0x3dabbe24	0.08385876
54	0xbda09f3d	-0.07842872
55	0x3dc93d1c	0.09826109
56	0x3de42951	0.11140693
57	0x3e034687	0.12819873
58	0x3cee5287	0.029092086
59	0x3d840b02	0.06447412
60	0x3de8fb05	0.11376003
61	0x3ddd1ecf	0.10796892
62	0xbb2ea62c	-0.002664934
63	0x3daf60f3	0.085634135
64	0xbd46bf2a	-0.048522152
65	0x3cf117bf	0.029430268
66	0x3dacb527	0.084329896
67	0xbd9e8fc9	-0.077422686
68	0xbd5a4935	-0.053292472
69	0xbd0a3eee	-0.03375142
70	0xbd0acdb8	-0.033887595
71	0xbc8a45c1	-0.016878964
72	0xbe19add9	-0.15007724
73	0xbd377d22	-0.04479707
74	0x3d974b1e	0.07387374
75	0xbd7be7f7	-0.061500516
76	0x3d7dd50b	0.06197075
77	0x3a242e18	0.0006262972
78	0x3cfbbbeb	0.030729255
79	0xbd999861	-0.07499767
80	0xbd0ab777	-0.033866372
81	0xbc75afbb	-0.014995511
82	0x3dab9695	0.083783306
83	0xbda63fa5	-0.08117608
84	0x3ddc84e6	0.10767536
85	0x3e0ecc04	0.13945013
86	0x3d81a0d9	0.063295074
87	0x3d8c8a06	0.068622634
88	0xbd8424ff	-0.06452369
89	0xbd4698d2	-0.048485585
90	0x3d5bbc80	0.053646564
91	0x3ddfcb32	0.10927428
92	0xbccf3be9	-0.025297122
93	0xbd028e1e	-0.031873815
94	0x3b6a5554	0.0035756426
95	0xbd1fb1a2	-0.038987763
96	0xbca0a550	-0.019610077
97	0xbc075648	-0.008260317
98	0x3db272ee	0.08713327
99	0xbd0793bc	-0.033099875
100	0xbe278d32	-0.16362455
101	0x3cd14444	0.025545247
102	0xbccb55b6	-0.024821144
103	0xbd7581c8	-0.059938222
104	0x3c257924	0.010099683
105	0xbd318022	-0.043335088
106	0x3c8f182a	0.017467577
107	0x3dcd7701	0.10032464
108	0x3dfe704a	0.12423761
109	0x3dcedf11	0.1010114
110	0xbcf0a205	-0.029374132
111	0xbcbb3fb6	-0.022857528
112	0x3ce962ea	0.028489549
113	0x3bcdf0e6	0.006284821
114	0xbb8d57e4	-0.004313456
115	0x3da78f5c	0.081816405
116	0xbd0f712e	-0.035020046
117	0x3bb8628c	0.005626982
118	0x3d10c073	0.035339784
119	0x3b488614	0.0030597495
120	0xbc752446	-0.014962262
121	0xbca1b12d	-0.019737804
122	0x3d3cf522	0.046132214
123	0xbbfc6e96	-0.0077036126
124	0xbdef88cf	-0.11696016
125	0xbcc5bf26	-0.024138998
126	0xbd10c64d	-0.035345364
127	0x3db00978	0.08595556
128	0x3e187290	0.14887452
129	0xbcf315c0	-0.029673457
130	0xbe08b654	-0.13350803
131	0x3d1ad7f0	0.03780359
132	0x3c3c8e76	0.011508575
133	0xbb3534d4	-0.0027649896
134	0x3cc3eb2e	0.023915853
135	0x3de81194	0.11331478
136	0xbd02f3c5	-0.031970758
137	0xbb015c14	-0.001973872
138	0x3b794594	0.0038035857
139	0x3c60f3a4	0.013729963
140	0xbd00b45c	-0.031422004
141	0x3c69afac	0.014263075
142	0x3d098e2a	0.033582844
143	0x3dc1bd64	0.094599515
144	0xbd9633ad	-0.07334075
145	0x3d9eb818	0.07749957
146	0x3d92914a	0.07156618
147	0x3c179dc9	0.0092539275
148	0xbd53d335	-0.051715095
149	0x3d0627e4	0.032752886
150	0x3cf2e1f0	0.029648751
151	0x3d08c2d0	0.033388913
152	0xbbf1a7d9	-0.0073747453
153	0x3ca32218	0.019913718
154	0xbd8bf3c9	-0.06833608
155	0x3d89eb03	0.06734278
156	0x3da6b8eb	0.08140739
157	0x3d4e4540	0.05035901
158	0xbce97d9d	-0.02850228
159	0x3cba16e9	0.022716003
160	0x3da7897f	0.08180522
161	0x3c2d8fe7	0.010593391
162	0xbc4782ae	-0.012177153
163	0x3d598fbe	0.0531156
164	0xbd925085	-0.07144264
165	0xbc8bbc2b	-0.017057499
166	0x3ce36aac	0.027760826
167	0xbd92f113	-0.071748875
168	0x3d48b527	0.049000885
169	0xbd9c2022	-0.07623316
170	0xbbb0f85e	-0.0054007014
171	0x3d86a645	0.06574682
172	0xbd994cf0	-0.07485378
173	0x3c56d7c1	0.013112963
174	0xbd194674	-0.037420705
175	0xbd694ccf	-0.056958016
176	0x3d48b250	0.048998177
177	0x3d46eb66	0.048564337
178	0x3ceb1f96	0.028701585
179	0xbc248258	-0.010040842
180	0xbb86e0e2	-0.0041161636
181	0x3c848b20	0.016179621
182	0x3c6e4d53	0.014544803
183	0x3d266f3c	0.040633425
184	0x3d102b0e	0.03519731
185	0x3e06cb3d	0.13163467
186	0xbc13bca0	-0.00901714
187	0x3e07473a	0.13210765
188	0xbd369e6e	-0.044584684
189	0xbcc10140	-0.023560166
190	0x3d51f4cf	0.05125886
191	0x3d2a733e	0.04161381
192	0xbccdad40	-0.025107026
193	0x3c7f498c	0.0155815
194	0x3d7adcdf	0.061245795
195	0xbdd61572	-0.10453309
196	0x3c6fe0ba	0.014640981
197	0xbd6b7918	-0.05748853
198	0x3da91202	0.08255388
199	0x3b3179b3	0.0027080595
200	0x3e6a68af	0.22891496
201	0x3c9b928e	0.018990781
202	0x3c9992a4	0.018746682
203	0xbd305192	-0.04304654
204	0xbcb57f91	-0.022155555
205	0xbdcce5fc	-0.100048035
206	0xbd394649	-0.045233045
207	0xbb86e84a	-0.0041170465
208	0x3e3a97db	0.18221991
209	0x3ca228a2	0.019794766
210	0xbc97f6c3	-0.018550282
211	0xbba2aec6	-0.0049646823
212	0x3d6fb4ab	0.058521908
213	0xbc834368	-0.016023353
214	0x3d6a475f	0.05719697
215	0x3da2bc18	0.07946032
216	0xbd854148	-0.06506592
217	0xbe09e961	-0.13467933
218	0xbd7e8038	-0.062133998
219	0x3d221925	0.03957476
220	0xbb7edb6e	-0.0038888115
221	0x3d951cf0	0.0728091
222	0x3dbf58e9	0.0934313
223	0xbaa7630c	-0.0012770607
224	0x3d1406b9	0.036139224
225	0xbd3faa8b	-0.0467935
226	0x3ec4e3be	0.38455003
227	0x3e088dd2	0.1333535
228	0x3e0b0bfe	0.13578793
229	0x3d41e3f4	0.047336534
230	0xbe0ef84a	-0.13961902
231	0x3daef8e7	0.08543568
232	0x3c005035	0.007831623
233	0xbb9d5962	-0.004801915
234	0x3b0d7f86	0.0021590902
235	0x3e083a5e	0.13303515
236	0xbdf61717	-0.12016123
237	0x3ca08b02	0.019597534
238	0xbcfbeb71	-0.030751916
239	0xbcb4610c	-0.022018932
240	0xbdc25b4b	-0.09490069
241	0xbd7b9717	-0.061423387
242	0x3d8f9272	0.07010354
243	0x3d76d595	0.06026228
244	0xbd1fd827	-0.0390245
245	0x3e0178dd	0.12643762
246	0x3d89822f	0.06714284
247	0x3d2f9981	0.042871002
248	0xbd200e1c	-0.039075956
249	0xbd4eb029	-0.05046097
250	0x3d1be4a9	0.038059864
251	0x3d4f2f32	0.05058212
252	0xba1e49d0	-0.00060382206
253	0xbd09cf4e	-0.033644967
254	0xbdeb3947	-0.11485534
255	0x3e2ad507	0.16682826

fc2.bias f4 [3]
0	0x4088d6c2	4.2762156
1	0xbfe918f4	-1.821074
2	0xc0b325e3	-5.598375
